bestFuckingModel.onnx (onnx, 219372 bytes, 9 tensors)

W0__27 f4 [1, 400, 6]
0	0x3befc7f5	0.007317538
1	0xbd72b763	-0.059256922
2	0xbb9ffcb0	-0.0048824176
3	0x3dd71b70	0.1050328
4	0xbe070c6c	-0.13188332
5	0xbd235d36	-0.039883815
6	0x3bac637d	0.0052608834
7	0x3cdbb738	0.026820764
8	0x3cf50f06	0.02991439
9	0xbc3d1ca8	-0.011542477
10	0xbcf80c13	-0.030279195
11	0x3ce2d240	0.027688146
12	0xbd23a935	-0.03995629
13	0x3dae2b5b	0.08504363
14	0xbdff5cdb	-0.12468883
15	0x3e063377	0.1310557
16	0x3d7eea0c	0.062234923
17	0xbdd96c7b	-0.10616394
18	0x3d15b96f	0.036553796
19	0x3db2beda	0.08727808
20	0x3d299728	0.04140392
21	0xbc42dbf2	-0.011893259
22	0xbb0a1e29	-0.0021075106
23	0xb9bb8fcd	-0.0003577456
24	0xbd231cbe	-0.039822333
25	0xbdfe1b1c	-0.124075145
26	0xbd904166	-0.07043724
27	0xbe16b216	-0.14716372
28	0x3cc79a9e	0.02436572
29	0xbd696f97	-0.056991186
30	0x3dacd24f	0.08438551
31	0xbd879a42	-0.06621219
32	0xbb713ce0	-0.0036809966
33	0x3d61b096	0.055100046
34	0xbe271f13	-0.16320448
35	0xbddc87e2	-0.10768105
36	0x3d655d87	0.055997398
37	0xbd5719b7	-0.052514758
38	0x3dfbedac	0.12301192
39	0xbe0a7974	-0.13522893
40	0xbe127fa7	-0.14306508
41	0xbdb153d2	-0.086585656
42	0x3e193be2	0.1496425
43	0x3d3b0816	0.04566201
44	0x3d9df06d	0.07711873
45	0xbbc7759c	-0.006087018
46	0xbe059837	-0.13046347
47	0xbd6f0823	-0.05835737
48	0xba94b526	-0.001134549
49	0xbd82687d	-0.06367586
50	0x3dabcd8c	0.08388814
51	0x3d6b3e05	0.057432193
52	0x3d3d161e	0.04616367
53	0x3dc84eda	0.09780665
54	0x3bbc31ca	0.00574324
55	0xbdc2a3fc	-0.09503934
56	0xbd79848d	-0.060917426
57	0xbc8a97e9	-0.01691814
58	0xbcf443f3	-0.029817557
59	0x3bce7ae8	0.0063012727
60	0xbdde6740	-0.10859537
61	0xbde1c721	-0.11024309
62	0x3cea9de9	0.02863975
63	0x3e1d4ccc	0.15361327
64	0xbdebd472	-0.1151513
65	0xbbe31546	-0.006930026
66	0x3de8eb20	0.113729715
67	0x3d848394	0.06470409
68	0x3d995791	0.07487405
69	0x3ce37072	0.027763579
70	0x3dd36acc	0.10323104
71	0xbd0c2130	-0.034211338
72	0xbd9b334e	-0.07578145
73	0x3dfdf275	0.12399761
74	0x3d0c77ba	0.034293868
75	0x3e0a00e5	0.13476904
76	0xbc8fb5e2	-0.017542783
77	0xbd9218b3	-0.07133617
78	0x3d2d9c14	0.042385176
79	0x3d6695c1	0.05629516
80	0xbcd55477	-0.026041253
81	0xbd7f0cfa	-0.062268235
82	0x3d8165aa	0.06318219
83	0x3d512c35	0.05106755
84	0xbc6d3016	-0.014476797
85	0x3d3519c3	0.04421402
86	0xbdbc6a82	-0.09200002
87	0xbb216275	-0.0024625335
88	0x3d2144ab	0.039372128
89	0x3ce02805	0.027362833
90	0xbc536644	-0.0129028
91	0xbd1f24ef	-0.038853582
92	0xbda534c1	-0.08066703
93	0x3c4f08c9	0.012636372
94	0xbc9efd3b	-0.01940786
95	0x3e0647d2	0.13113335
96	0x3d2d2485	0.042271156
97	0x3d624c63	0.05524863
98	0xbe0b9760	-0.13631964
99	0xbd597d36	-0.053097926
100	0x3bf0cd62	0.0073487023
101	0x3c6f4849	0.0146046365
102	0xbd859729	-0.06522972
103	0x3d9cee22	0.07662608
104	0x3d1a8116	0.037720762
105	0x3c820342	0.015870694
106	0x3da3d869	0.08000261
107	0x3d0c9ae8	0.034327418
108	0x3da9dbfa	0.0829391
109	0x3d49d0a5	0.049271245
110	0x3d235b57	0.03988203
111	0xbce9296d	-0.028462136
112	0x398b1348	0.00026526512
113	0xbd7c07b7	-0.061530795
114	0x3c853db4	0.016264774
115	0x3dce054f	0.10059606
116	0x3c964590	0.018343717
117	0xbd95735a	-0.07297392
118	0xbd72a591	-0.059239928
119	0xbdb6cd4e	-0.089258775
120	0x3dc8e22c	0.09808764
121	0x3ce8a496	0.028398793
122	0xbcd5cce4	-0.026098676
123	0xbcbb5a05	-0.022870073
124	0xbcc625be	-0.024187919
125	0xbd8a4b79	-0.067526765
126	0xbcca094b	-0.024662634
127	0xbd05a8c5	-0.032631654
128	0x3dcc8c57	0.09987705
129	0x3de4c690	0.11170685
130	0x3d6a1432	0.057148166
131	0xbd275312	-0.040850706
132	0xbd25168f	-0.040304717
133	0xbe0628d3	-0.1310151
134	0x3dfc7f1d	0.123289324
135	0x3d2f9f31	0.042876426
136	0xbd843b27	-0.06456595
137	0x3c771269	0.015080073
138	0xbc076d2b	-0.008265774
139	0x3c2b61ad	0.010460299
140	0xbc1ac713	-0.009446877
141	0x3c7445a8	0.0149091855
142	0xbdacca38	-0.08437008
143	0xbda110fb	-0.07864567
144	0x3db9a6de	0.090650305
145	0x3db577a5	0.08860711
146	0x3d81cf44	0.06338361
147	0xbcd3159f	-0.025767146
148	0xbcdd58e1	-0.02701992
149	0x3d470477	0.048588242
150	0x3dd220dc	0.10260174
151	0xbcdac51a	-0.026705313
152	0xbd81e025	-0.0634158
153	0xbe05f0d9	-0.13080157
154	0xbdf3cbf4	-0.11904135
155	0x3d93dfe0	0.07220435
156	0x3da59afb	0.08086201
157	0x3dcec75d	0.10096619
158	0xbd58d780	-0.05293989
159	0xbd0ffb4e	-0.035151772
160	0x3a5a5dac	0.0008329998
161	0x3e0a065b	0.13478987
162	0x3d28e0ed	0.04123013
163	0x3d0088b7	0.03138038
164	0xbccd5ee5	-0.025069663
165	0xbe0841bd	-0.13306327
166	0xbd9649e2	-0.07338311
167	0xbd19ccc3	-0.03754879
168	0xbdb5ea7e	-0.088826165
169	0x3e15ae81	0.14617349
170	0xbad6821a	-0.0016365678
171	0xbca3a9a7	-0.019978357
172	0x3dc67c79	0.0969171
173	0x3d0f39b0	0.034967124
174	0xbd86f952	-0.06590523
175	0xbd80eacc	-0.06294784
176	0x3bfb22c6	0.0076640574
177	0xbd51bb29	-0.05120388
178	0x3db7d178	0.089755
179	0x3dedab92	0.1160499
180	0x3d9fc63c	0.07801482
181	0xbc05fc70	-0.008177862
182	0xbd36354f	-0.044484433
183	0x3e0e34d2	0.13887337
184	0x3d181230	0.03712672
185	0xbcac6b3b	-0.021047225
186	0xbdca5e77	-0.09881299
187	0xbb205cc6	-0.002446936
188	0xbd830554	-0.06397501
189	0x3cb78547	0.022402419
190	0x3cfbe662	0.030749504
191	0x3da679b0	0.08128679
192	0x3d19eb88	0.037578136
193	0x3bf6cb5a	0.0075315656
194	0x3d679f44	0.056548372
195	0x3cc70af8	0.024297222
196	0x3deee7c3	0.11665299
197	0xbc604fe1	-0.01369092
198	0x3d951ded	0.072810985
199	0xbd571772	-0.052512594
200	0xbd8ee217	-0.06976717
201	0xbc2f323e	-0.010693131
202	0xbccee572	-0.025255892
203	0xbbcd15c6	-0.006258699
204	0x3d8072fc	0.062719315
205	0x3de95656	0.113934204
206	0xbd24a43a	-0.04019568
207	0x3e1f19ae	0.1553714
208	0xbd375168	-0.04475537
209	0xbd5f9307	-0.054583576
210	0xba0c4f51	-0.0005352395
211	0x3dc4274b	0.09577807
212	0xbdcb8ec3	-0.09939339
213	0xbd3c7ccd	-0.046017457
214	0xbdaa1a7b	-0.08305832
215	0xbc0d4e82	-0.008624675
216	0xbd997b01	-0.07494164
217	0x3deea2a6	0.116521165
218	0x3c38c172	0.01127659
219	0x3c694cb4	0.014239479
220	0xbc5cb986	-0.013471967
221	0x3d4ee138	0.050507754
222	0x3db757a3	0.08952262
223	0x3cc611c1	0.024178388
224	0x3da5d6ea	0.08097632
225	0x3dddf902	0.1083851
226	0x3d945795	0.072432674
227	0x3d48dde5	0.04903974
228	0xbd3ee2fc	-0.046603188
229	0xbc240c95	-0.010012765
230	0xbcc3e403	-0.023912435
231	0x3bea6292	0.007152864
232	0x3c8eef6d	0.017448151
233	0xbc9db3da	-0.019250799
234	0xbd0823e7	-0.033237364
235	0xbde8bb76	-0.1136388
236	0xbd907dca	-0.07055242
237	0x3cf34914	0.029697932
238	0xbd62c0f3	-0.055359792
239	0x3de1c457	0.11023777
240	0xbdf76aad	-0.12080894
241	0x3d889e70	0.066708446
242	0x3d38245d	0.044956554
243	0xbb624551	-0.003452618
244	0x3dcefc53	0.10106721
245	0x3dceb552	0.10093178
246	0x3dd31416	0.103065655
247	0x3e161749	0.1465732
248	0x3d8d389f	0.06895565
249	0x3da23640	0.079205036
250	0x3dec0837	0.11525004
251	0xbd449117	-0.04798993
252	0x3cf295f5	0.02961252
253	0xbdba1958	-0.09086865
254	0xbe0d861e	-0.13820693
255	0x3d8c3982	0.06846906

StatefulPartitionedCall/sequential/output/MatMul/ReadVariableOp:0 f4 [100, 3]
0	0xbd3a7a3d	-0.04552673
1	0xbe399aca	-0.18125454
2	0x3c9a8e2e	0.018866625
3	0x3e4cb7ed	0.19992037
4	0x3deaadeb	0.114589535
5	0xbe06cc3b	-0.13163845
6	0x3d5ceed8	0.053938717
7	0xbe622957	-0.22086082
8	0xbd82a165	-0.0637844
9	0xbe88f96e	-0.267528
10	0xbdb8598c	-0.09001455
11	0xbd322a34	-0.04349728
12	0xbc977e44	-0.018492825
13	0xbe41b3ac	-0.18916196
14	0x3e7d2a17	0.24723087
15	0x3e1106d8	0.14162767
16	0xbe6de1ca	-0.23230663
17	0x3e59ad2b	0.21257465
18	0x3e492133	0.19641571
19	0x3cfd2553	0.030901587
20	0xbe8e7a64	-0.27827752
21	0xbd97ece6	-0.07418232
22	0xbc42ebb3	-0.011897015
23	0xbe9aa1f2	-0.3020168
24	0x3e0f2a3b	0.13980953
25	0x3e01f933	0.12692718
26	0xbdf46f29	-0.119352646
27	0x3e05edb4	0.13078958
28	0x3e874410	0.26419115
29	0xbc16778d	-0.009183777
30	0xbdf88deb	-0.12136444
31	0x3e27c3d4	0.16383296
32	0xbbf139d5	-0.0073616304
33	0xbe7eb57d	-0.2487392
34	0xbe055eeb	-0.1302449
35	0xbcdf2d7e	-0.027243372
36	0xbca3bc4f	-0.019987253
37	0xbc9c51b8	-0.019081935
38	0x3e0f3f02	0.1398888
39	0x3e4bb644	0.19893748
40	0xbdf478b4	-0.11937085
41	0xbd33350c	-0.04375176
42	0xbe67d4b9	-0.22639741
43	0xbcd6d9bc	-0.02622687
44	0x3d0a25e0	0.033727527
45	0x3e03bafe	0.128643
46	0xbe233551	-0.15938307
47	0xbe0f0bf7	-0.13969408
48	0x3e8003f4	0.25003016
49	0xbd29493f	-0.04132962
50	0xbdaaf840	-0.08348131
51	0xbdcba314	-0.09943214
52	0x3e659692	0.2242072
53	0xbe598d7b	-0.21245377
54	0x3d0d9f90	0.034576
55	0xbe3c75bc	-0.18404287
56	0xbe3ce93e	-0.1844835
57	0xbe82a97d	-0.25519934
58	0x3b2d41a6	0.0026436835
59	0x3e05a7c7	0.13052283
60	0xbdeef974	-0.11668673
61	0xbe2d2f0c	-0.16912478
62	0xbbf42997	-0.007451247
63	0xbdf2fda2	-0.11864783
64	0x3e522d6a	0.20525137
65	0xbea77d9d	-0.32713023
66	0x3e72bffd	0.2370605
67	0xbe6df05e	-0.23236224
68	0xbdc68f85	-0.09695343
69	0x3e8aeba9	0.2713292
70	0x3e53abc4	0.20670992
71	0xbe81ea80	-0.25374222
72	0x3dd73ac5	0.10509256
73	0x3e62a232	0.22132185
74	0xbdbcc68d	-0.09217558
75	0x3d93ec60	0.07222819
76	0xbc8ab920	-0.016933978
77	0x3e36ad14	0.17839462
78	0x3daeac15	0.08528916
79	0xbc937551	-0.018000277
80	0xbe4a1e0e	-0.19738027
81	0xbe06b912	-0.13156536
82	0x3d22389a	0.03960476
83	0xbe42c3e5	-0.1902004
84	0x3e3ce2f3	0.1844595
85	0x3e5de34c	0.21668738
86	0xbe2c5305	-0.16828544
87	0xbe6e7285	-0.23285873
88	0xbe165c2e	-0.14683601
89	0x3e76de17	0.24108158
90	0xbe741be4	-0.23838764
91	0xbd189fef	-0.0372619
92	0xbd629c62	-0.05532492
93	0x3e60e7b7	0.21963392
94	0xbda2caa8	-0.0794881
95	0x375a8882	1.3025596e-05
96	0x3e441476	0.1914843
97	0xbe294131	-0.16528775
98	0xbe8ad0ca	-0.27112418
99	0x3dbc7d3e	0.092035756
100	0xbe16630f	-0.14686225
101	0x3db73a08	0.089466155
102	0x3e726725	0.23672159
103	0x3deda088	0.116028845
104	0x3cddfcc3	0.027098065
105	0xbcf78344	-0.03021396
106	0x3e82a16b	0.25513777
107	0x3e3f4ebe	0.18682382
108	0x3e25108d	0.16119595
109	0xbcff61ac	-0.031174503
110	0x3d8092a8	0.062779725
111	0xbcf08db2	-0.02936444
112	0xbcbc9b21	-0.02302319
113	0x3e86a652	0.26298767
114	0x3e1ae3e4	0.15125996
115	0x3e93bb7e	0.28853983
116	0xbe30c243	-0.17261605
117	0xbe05a111	-0.13049723
118	0xbe32ad13	-0.17448835
119	0x3d3c5726	0.04598155
120	0xbe1d68df	-0.15372036
121	0x3be40f8d	0.0069598616
122	0xbe171dc3	-0.14757447
123	0x3d118c72	0.03553433
124	0x3e650fb4	0.22369272
125	0x3e339177	0.17535959
126	0x3e103300	0.14081955
127	0xbdc0b03c	-0.09408614
128	0xbe8dd4e1	-0.27701476
129	0xbe8ff2dc	-0.28114974
130	0x3e17e023	0.14831595
131	0xbde499df	-0.11162161
132	0xbe3304fe	-0.17482373
133	0x3e7b72b0	0.24555469
134	0xbe6019db	-0.21884863
135	0x3dbc2624	0.09186962
136	0x3d5fb650	0.054617226
137	0xbe8345ab	-0.2563909
138	0x3dd2bc7f	0.10289859
139	0xbe93ac2f	-0.28842303
140	0x3dd77311	0.10519994
141	0x3e75670b	0.23965089
142	0x3d7b4883	0.06134845
143	0xbdaf07e1	-0.08546425
144	0x3d85f7cd	0.06541405
145	0x3de29305	0.11063198
146	0x3e0306df	0.1279559
147	0xbddfda55	-0.109303154
148	0xbe92fe8f	-0.28709838
149	0xbe602457	-0.21888863
150	0x3c80e287	0.015733017
151	0xbe518427	-0.20460568
152	0x3e49163e	0.19637391
153	0x3e3d51e9	0.18488277
154	0xbe1dc620	-0.1540761
155	0x3d82c6de	0.06385587
156	0x3e829a95	0.25508562
157	0x3da6b481	0.08139897
158	0x3e4d70e9	0.20062603
159	0xbe795499	-0.24348678
160	0xbe2cf98b	-0.16892068
161	0xbe79ce5f	-0.2439513
162	0xbbff0463	-0.0077825054
163	0xbe843aee	-0.2582621
164	0x3e7da686	0.24770555
165	0xbd4c5190	-0.04988247
166	0xbe55e2fe	-0.20887372
167	0xbd4f1abd	-0.05056261
168	0x3e6b71d1	0.22992636
169	0x3e0267eb	0.12734954
170	0x3dd9c373	0.10632982
171	0xbe4e600a	-0.20153823
172	0xbda36dc2	-0.07979919
173	0x3e2b93e3	0.16755633
174	0xbde0fbf8	-0.10985559
175	0xbe12c1c3	-0.14331727
176	0xbe4bfbcb	-0.1992027
177	0xbe6332f3	-0.22187404
178	0xbe1ba0fd	-0.15198131
179	0x3e7a447f	0.24440192
180	0x3db32fc8	0.08749348
181	0xbe3a1469	-0.18171848
182	0x3d8b86fc	0.068128556
183	0x3d9c1d06	0.07622723
184	0x3e0e8609	0.13918318
185	0x3e20158d	0.15633221
186	0x3dbd5776	0.092451975
187	0xbe21d5e8	-0.15804255
188	0xbd138cdf	-0.036023017
189	0x3e1b7b85	0.15183838
190	0xbe5d0c95	-0.21586831
191	0xbe750b3a	-0.23930064
192	0x3dc3632d	0.09540401
193	0xbe9cccd1	-0.30625013
194	0x3d92ce9e	0.07168315
195	0x3e5a8bf6	0.21342453
196	0xbe2913b2	-0.1651142
197	0x3ce8f981	0.028439285
198	0x3e881a11	0.26582387
199	0xbe0431f0	-0.12909675
200	0xbe0a4abd	-0.13505073
201	0x3e6ee89f	0.23330925
202	0xbe383559	-0.179891
203	0xbc4ba14d	-0.012428594
204	0x3e7139cd	0.23557205
205	0x3e31490d	0.17313023
206	0x3daeffe6	0.085449025
207	0x3e1ac8b1	0.1511562
208	0xbe1c1ae4	-0.15244633
209	0xbe869cfa	-0.2629164
210	0x3e1f8c71	0.15580918
211	0x3e9562fc	0.29177082
212	0x3dcfe370	0.10150802
213	0xbe795664	-0.24349362
214	0x3e5dd67f	0.21663855
215	0xbe1c6152	-0.152715
216	0xbdc926ec	-0.09821877
217	0xbe2548ee	-0.16141102
218	0x3e13cfbc	0.14434713
219	0x3df436b2	0.11924495
220	0xbdd495c2	-0.103801265
221	0x3d2b4efb	0.04182337
222	0x3dd6fb32	0.104971305
223	0x3d65d649	0.05611256
224	0xbe991a1c	-0.29902732
225	0x3e582dc7	0.21111213
226	0xbd1dd564	-0.038533583
227	0xbd24fc9c	-0.04027997
228	0x3d81d10a	0.06338699
229	0x3e19bdd7	0.15013824
230	0xbe08571f	-0.13314484
231	0xbe06aeb0	-0.13152575
232	0x3b33dab5	0.0027443592
233	0x3e4aaba1	0.19792034
234	0xbc05fc77	-0.008177868
235	0xbdca876b	-0.0988911
236	0x3e0a7fbd	0.13525291
237	0xbe38ae78	-0.18035305
238	0x3e168309	0.14698423
239	0x3ddadf6d	0.10687146
240	0xbe7f9210	-0.24958062
241	0xbe854de4	-0.26035988
242	0x3e06b748	0.13155854
243	0xbdb83599	-0.08994598
244	0x3e87cdaa	0.26524097
245	0xbe8b81bc	-0.27247417
246	0xbe1cbb2e	-0.15305778
247	0x3e73d717	0.23812519
248	0xbdbdf9ed	-0.09276185
249	0xbe8682a9	-0.2627156
250	0xbe109061	-0.14117576
251	0xbda7cc94	-0.08193317
252	0xbe0d1c31	-0.13780285
253	0x3e7babf0	0.24577308
254	0xbd8ed886	-0.06974892
255	0x3e67b2c9	0.22626795

StatefulPartitionedCall/sequential/output/BiasAdd/ReadVariableOp:0 f4 [3]
0	0xbb978dc7	-0.0046250555
1	0x3ccdda08	0.02512838
2	0xbd06884c	-0.032844827

StatefulPartitionedCall/sequential/dense/MatMul/ReadVariableOp:0 f4 [100, 100]
0	0x3d2954d7	0.041340675
1	0x3dcfd380	0.10147762
2	0x3d6e6972	0.05820603
3	0xbe03a86a	-0.12857214
4	0xbc07e2c4	-0.008293811
5	0x3d0c1b05	0.034205455
6	0xbe0253a8	-0.12727225
7	0x3d2cfd19	0.04223356
8	0xbe1c5509	-0.15266813
9	0x3e17c60d	0.14821644
10	0xbdd10d0d	-0.10207567
11	0xbbaaaa36	-0.005208279
12	0xbd2eebcb	-0.04270534
13	0xbe3f45f4	-0.18679029
14	0xbcd94ee0	-0.026526868
15	0xbdb8eeb8	-0.09029907
16	0xbdab81ee	-0.083743915
17	0x3e3175c8	0.17330086
18	0x3df6a37e	0.120429024
19	0x3c774ed7	0.0150944805
20	0xbe0cfd93	-0.13768606
21	0x3d51c4e0	0.051213145
22	0xba08f97c	-0.00052251644
23	0xbd89ebab	-0.06734403
24	0x3bbc70eb	0.0057507656
25	0xbd2d1cc2	-0.042263754
26	0x3d0f1e8d	0.034941245
27	0x3e00a10c	0.12561435
28	0xbceb9ff2	-0.028762791
29	0x3d44c0b1	0.048035327
30	0xbdcec5ee	-0.10096346
31	0x3db4c0bb	0.08825823
32	0x3dabe7a5	0.08393792
33	0xbdc061cb	-0.093936525
34	0xbd69b580	-0.057057858
35	0x3dc724a6	0.09723787
36	0xbdfe14e3	-0.124063276
37	0x3d24ba98	0.040217012
38	0xbe155a65	-0.14585264
39	0xbd9e489d	-0.07728694
40	0x3da00aad	0.07814536
41	0xbdd4c7a6	-0.103896424
42	0xbe27b28b	-0.16376702
43	0x3d77691b	0.06040297
44	0xbd1c0d5f	-0.03809869
45	0xbe395246	-0.18097791
46	0x3e384602	0.17995456
47	0x3df5fe30	0.12011373
48	0x3db942a8	0.09045917
49	0xbda900c1	-0.08252097
50	0x3e205d20	0.15660524
51	0xbe1f966d	-0.15584727
52	0x3e0decd1	0.1385987
53	0x3e3a5ccf	0.18199466
54	0x3cd2467a	0.025668371
55	0x3d9933f2	0.07480611
56	0x3daf531f	0.08560776
57	0x3dbb1353	0.09134545
58	0x3daece25	0.08535413
59	0xbd97cccd	-0.074121095
60	0xbce19690	-0.027537614
61	0x3e107824	0.1410833
62	0xbe2e015c	-0.16992706
63	0xbe1c114a	-0.1524097
64	0x3dc0a7bb	0.09406992
65	0x3e13fd0b	0.14451997
66	0xbe1ac148	-0.15112793
67	0xbe069d9c	-0.1314606
68	0xbd7037e0	-0.058647037
69	0x3e033695	0.1281379
70	0xbd94a7e6	-0.072585866
71	0x3c5469a1	0.012964637
72	0x3b1a21c2	0.0023518656
73	0xbe045dcd	-0.12926407
74	0x3dbe5f7d	0.09295557
75	0xbe33525b	-0.17511885
76	0x3e0dfa94	0.13865119
77	0xbd695cf3	-0.05697341
78	0x3dbd4550	0.09241736
79	0x3e32bb35	0.17454226
80	0x3e27e5f7	0.16396318
81	0x3db3ce13	0.0877954
82	0xbdfd8176	-0.12378208
83	0xbce506e0	-0.02795738
84	0x3c2eb7d8	0.010663949
85	0xbdbef4c0	-0.09324026
86	0xbe264436	-0.16236958
87	0xbb46039f	-0.003021456
88	0x3dc3626c	0.09540257
89	0x3e0dfee6	0.13866767
90	0x3e1f6a06	0.15567788
91	0x3df97850	0.12181151
92	0xbd77f1c6	-0.060533307
93	0x3e05de7b	0.13073151
94	0x3d5b3777	0.053519692
95	0xbe30a897	-0.17251812
96	0xbe18e288	-0.14930165
97	0x3d6ed6f8	0.05831048
98	0x3ddf2674	0.10896006
99	0x3e295c7d	0.16539188
100	0x3e1b179a	0.15145722
101	0x3da09c55	0.07842318
102	0x3df2fcf7	0.118646555
103	0x3cb91edc	0.022597723
104	0x3e577425	0.210404
105	0xbdc2922a	-0.09500535
106	0xbe0f1ab1	-0.13975026
107	0xbe454dd4	-0.1926797
108	0xbcf56e9c	-0.02995997
109	0xbc8ea968	-0.017414764
110	0xbd00f91a	-0.03148756
111	0x3d51fc7d	0.051266182
112	0x3e15b5a6	0.14620075
113	0xbd800f66	-0.06252937
114	0x3dcd46e7	0.10023289
115	0xbe05b5c6	-0.13057622
116	0xbddf40d0	-0.10901034
117	0xbde7e50c	-0.11322984
118	0x3ddf280b	0.108963095
119	0x3e150297	0.14551769
120	0x3d4104ee	0.047123842
121	0xbe08342d	-0.13301153
122	0x3e3e5993	0.18588857
123	0x3dd8462e	0.10560261
124	0xbd8fca49	-0.07021005
125	0x3d8588cd	0.06520233
126	0xbe0c8318	-0.13721883
127	0xbbad0178	-0.005279716
128	0xbe202dd2	-0.15642479
129	0x3dabb11e	0.08383392
130	0xbe333bf7	-0.17503344
131	0x3e241014	0.16021758
132	0xbdf2e4c0	-0.11860037
133	0xbd97a8c1	-0.07405234
134	0x3d59a4cc	0.05313568
135	0xbe3ce609	-0.18447126
136	0xbd9db3d3	-0.077003144
137	0xbdb4b65b	-0.08823844
138	0xbdc14782	-0.09437467
139	0xbd43ceb7	-0.04780456
140	0xbe5c2e0b	-0.21501939
141	0xbe225886	-0.15854082
142	0xbca1e05d	-0.019760305
143	0xbd08250b	-0.033238452
144	0x3c2a0f54	0.010379631
145	0xbdaf510a	-0.08560379
146	0x3d8d90e6	0.06912403
147	0xbd7f9db1	-0.062406246
148	0x3d293767	0.0413126
149	0xbd95549a	-0.07291527
150	0xbd9cc502	-0.07654764
151	0x3e04bd08	0.12962735
152	0x3d1a1804	0.03762056
153	0x3dd69eac	0.10479483
154	0xbdbf7a8f	-0.09349548
155	0x3e30611f	0.17224549
156	0xbd252d64	-0.04032649
157	0x3e0a7933	0.13522796
158	0xbcfa6c09	-0.030569093
159	0x3e3bd328	0.18342268
160	0xbd872d05	-0.06600384
161	0x3e06ee8f	0.1317694
162	0x3e50a08d	0.20373745
163	0x3e0fa23d	0.14026733
164	0x3c423e66	0.011855697
165	0x3d6078b9	0.05480263
166	0x3ddd94b2	0.10819377
167	0x3dfff1f7	0.12497323
168	0xbe080801	-0.13284303
169	0x3e176f78	0.14788616
170	0xbe0e5e3a	-0.13903132
171	0x3d8c997d	0.06865213
172	0xbe055e16	-0.13024172
173	0xbde9f85f	-0.11424326
174	0xbe4207f5	-0.18948348
175	0x3d924ffa	0.071441606
176	0xbe14bb5e	-0.145246
177	0x3dd53359	0.104101844
178	0x3df63848	0.120224535
179	0xbe53bc50	-0.20677304
180	0xbdbb13c4	-0.09134629
181	0x3c044059	0.008071982
182	0xbdffb96b	-0.124865375
183	0x3d7bde74	0.061491445
184	0xbe6beab2	-0.23038748
185	0x3df15d4c	0.11785373
186	0xbdbf7ed8	-0.093503654
187	0x3d9bc3fd	0.07605741
188	0x3d6b76f1	0.05748648
189	0xbe3ae6c3	-0.18252091
190	0xbddcc05f	-0.107788794
191	0xbdae7642	-0.0851865
192	0xbba0208f	-0.004886694
193	0xbdcea690	-0.10090363
194	0x3dc624df	0.09675001
195	0x3e250c9b	0.1611809
196	0xbe33d1f7	-0.17560564
197	0x3d0a64a1	0.033787373
198	0xbe28297d	-0.16422077
199	0x3e04a105	0.12952049
200	0xbe0e6892	-0.13907078
201	0x3e3aa33e	0.18226334
202	0x3de532ec	0.11191353
203	0xbdf9914b	-0.121859156
204	0x3c9c970f	0.019115
205	0xbe04fb77	-0.12986551
206	0x3df8809d	0.12133906
207	0x3dbb1ab8	0.091359556
208	0x3e55bf33	0.20873718
209	0x3d1a1184	0.03761436
210	0xbbfa8368	-0.0076450594
211	0x3c99e6d7	0.01878683
212	0xbbb02442	-0.005375416
213	0x3db3b0d7	0.08773964
214	0xbcf3915a	-0.029732395
215	0xbc9ab7e9	-0.018886523
216	0xbd5ce8a1	-0.05393279
217	0x3e256ad1	0.16154028
218	0x3e23dd19	0.16002311
219	0xbe28f6b6	-0.16500363
220	0x3ca65802	0.020305637
221	0xbdf7f523	-0.12107303
222	0x3dda502e	0.10659824
223	0x3e126913	0.14297895
224	0x3dda65c2	0.1066394
225	0x3dba0a71	0.09084023
226	0x3de4e659	0.11176748
227	0xbe120d81	-0.14262964
228	0xbd2b06b5	-0.041754443
229	0xbd83808a	-0.06421001
230	0xbc0fcc8f	-0.008776798
231	0x3e020eee	0.12701008
232	0x3db4220a	0.08795555
233	0x3ddea26f	0.108708255
234	0x3dbefa1a	0.09325047
235	0x3c234cba	0.0099670235
236	0x3d16fb9c	0.036861047
237	0x3e0554f8	0.13020694
238	0x3d8af5a6	0.06785135
239	0x3d620cc2	0.055187948
240	0x3be34644	0.0069358665
241	0x3e09181e	0.13388106
242	0x3df49df0	0.11944187
243	0x3daf6988	0.0856505
244	0xbddc7404	-0.10764316
245	0xbd647d1a	-0.05578337
246	0xbd5f04e7	-0.054448035
247	0x3da65c4f	0.08123075
248	0x3d987313	0.07443824
249	0x3c655c2e	0.013999028
250	0x3e027b45	0.12742336
251	0xbdd09c4b	-0.101860605
252	0xbdcee325	-0.10101918
253	0x3dfd47bc	0.12367198
254	0xbdbca2e2	-0.09210755
255	0xbe2e0588	-0.16994298

StatefulPartitionedCall/sequential/dense/BiasAdd/ReadVariableOp:0 f4 [100]
0	0x3cb8da8d	0.02256515
1	0x3d0456cc	0.03230934
2	0xbc00da52	-0.007864552
3	0x3c4b883d	0.012422618
4	0x3c5e4f95	0.0135687785
5	0xbbf19a58	-0.0073731355
6	0x3c641025	0.013919865
7	0x3d8981b0	0.06714189
8	0x3d423352	0.047412224
9	0x3d3841c9	0.044984613
10	0x3d1c8da4	0.038221017
11	0x3c3d31aa	0.011547485
12	0xbd015de8	-0.031583697
13	0xbcc88a47	-0.024479998
14	0x3cb8cd74	0.022558905
15	0x3c8edccc	0.017439269
16	0xbbd80263	-0.0065920814
17	0x3d396e28	0.04527107
18	0x3c977433	0.018488025
19	0x3cc74b44	0.024327882
20	0xbcc4c4ed	-0.024019683
21	0x3d47cd38	0.048779696
22	0x3c0564b9	0.00814169
23	0x3d086de8	0.03330794
24	0x3d17782c	0.03697984
25	0xbc1ba58e	-0.0094999205
26	0x3cfa6c4b	0.030569216
27	0x3c5a9609	0.013341435
28	0x3d4e05db	0.050298553
29	0xbc16305d	-0.009166804
30	0x3c834854	0.0160257
31	0x3ca9c566	0.02072401
32	0x3c68a6b7	0.014199904
33	0x3b67d63a	0.0035375492
34	0xbb19df5a	-0.0023479075
35	0x3d1a92c8	0.037737638
36	0xbc27a0f0	-0.010231242
37	0x3bccf9a9	0.0062553477
38	0x3d4a5bad	0.049403835
39	0xbc60db86	-0.0137242135
40	0x3d2bb201	0.041917805
41	0xb956a756	-0.00020470968
42	0x3cbe2b82	0.023214106
43	0x3d1cee90	0.03831345
44	0x3c56db1e	0.013113765
45	0x3d19ce4a	0.03755025
46	0xbb13fd8d	-0.0022581548
47	0x3cb73857	0.022365732
48	0x3ae9dc3c	0.0017842124
49	0x3c251d10	0.01007773
50	0x3c4f2552	0.012643175
51	0xbd052507	-0.032506015
52	0xbb14172e	-0.0022596824
53	0x3d20b806	0.039238
54	0x3c7ab366	0.015301561
55	0x3c8b00f2	0.016968224
56	0x3c7f143e	0.015568791
57	0xbb9a8488	-0.004715506
58	0x3c3c0d23	0.011477741
59	0x3a1f0d7b	0.00060673774
60	0xbb691349	-0.0035564473
61	0x3b437fc3	0.002983079
62	0x3c20af87	0.009807474
63	0x3c1e8d38	0.009677224
64	0x3c8c7fc9	0.017150776
65	0x3a4ff08d	0.0007932268
66	0x3b9242ea	0.004463543
67	0x3b0211f4	0.0019847127
68	0x3ccc2da6	0.02492411
69	0x3c8ca707	0.017169489
70	0x3d054db7	0.032544818
71	0x3d288416	0.041141592
72	0xbcce963b	-0.02521812
73	0xbc917006	-0.017753612
74	0x3d3862ad	0.04501598
75	0xbc21a05c	-0.009864893
76	0x3d758e7d	0.05995034
77	0xbd093996	-0.033502184
78	0xba1b3d78	-0.00059219403
79	0x3ca76238	0.020432577
80	0xba775d4b	-0.0009436204
81	0x3d20740f	0.039173182
82	0x3d203418	0.03911218
83	0x3bc868b7	0.0061159986
84	0x3ca73820	0.020412505
85	0xbc88ae81	-0.016684772
86	0x3c8ccbad	0.017186964
87	0x3d1cd1c9	0.038286004
88	0xbcede4d5	-0.02903978
89	0x3cfa6bbf	0.030568955
90	0x3d63bbf7	0.05559918
91	0xbc6b11fa	-0.014347548
92	0x3c34ef06	0.011043316
93	0xbca5d046	-0.020240914
94	0x3c69dd77	0.014273993
95	0x3ccc9369	0.024972634
96	0x3d22b27a	0.03972099
97	0x3cfa104b	0.030525347
98	0x3d0b716c	0.034043714
99	0x3bc68d6d	0.0060593397

R0__28 f4 [1, 400, 100]
0	0x3ca393dc	0.019967966
1	0xbc6b3844	-0.0143566765
2	0x3c95abbd	0.018270368
3	0xbd765fe3	-0.06015004
4	0xbd58a53c	-0.052891955
5	0xbd745077	-0.05964705
6	0x3c767ec1	0.015044869
7	0xbd69eb41	-0.05710912
8	0x3d2da0bd	0.04238962
9	0xbcbab2f5	-0.022790411
10	0xbccb328e	-0.02480438
11	0x3cc224f1	0.023699256
12	0x3d0c1474	0.034199193
13	0x3d749e17	0.05972108
14	0x3d868fe0	0.06570411
15	0x3cadcbb0	0.02121529
16	0xbc762f03	-0.015025857
17	0x3d9762a7	0.07391863
18	0x3b047ef0	0.0020217262
19	0x3e12939a	0.14314118
20	0xbcc526be	-0.024066325
21	0x3ace3021	0.0015730896
22	0x3e18cd8b	0.14922158
23	0x3d58985a	0.05287967
24	0x3e1b4fe0	0.15167189
25	0xbd52193c	-0.051293597
26	0x3d3f3836	0.046684466
27	0x3d5df922	0.05419267
28	0xbd5e775f	-0.05431306
29	0xbdba8572	-0.09107484
30	0xbd811f34	-0.0630478
31	0x3c29c226	0.01036123
32	0xbb69e1ee	-0.0035687643
33	0x3d75eb1a	0.060038663
34	0xbc899016	-0.016792338
35	0x3d0d7605	0.03453638
36	0xbd0e6524	-0.034764424
37	0x3d6209b0	0.05518502
38	0xbab7e8c6	-0.0014031164
39	0x3c455620	0.01204446
40	0xbce035b0	-0.02736935
41	0x3c803aac	0.015652977
42	0x3db3a489	0.08771617
43	0xbd06a907	-0.03287604
44	0x3c7ca37d	0.015419838
45	0xbda8572a	-0.0821975
46	0x3d7d7546	0.06187942
47	0xbcf80bfc	-0.030279152
48	0xbd91255a	-0.07087202
49	0xbc46bab7	-0.012129477
50	0x3da6cc9e	0.081444964
51	0x3b81794d	0.0039512278
52	0xbd80f2ed	-0.062963344
53	0xbd1bcbe9	-0.03803626
54	0x3c1bf95a	0.009519899
55	0xbc6c82f9	-0.014435523
56	0x3ceac324	0.028657503
57	0xbcce1ca4	-0.025160141
58	0xbc036a55	-0.008020957
59	0x3d43302e	0.04765337
60	0xbd8ced2e	-0.06881176
61	0xba8bb97d	-0.0010660138
62	0xbd300ffa	-0.042983986
63	0xbc9fc8a1	-0.019504847
64	0xbd405dd5	-0.046964485
65	0x3d8e2b46	0.069418475
66	0x3d438821	0.047737245
67	0xbc59b0e8	-0.013286807
68	0x3dc4803f	0.095947735
69	0xbc688c80	-0.014193654
70	0x3d1ccb14	0.038279608
71	0x3c54ebbc	0.012995657
72	0xbd41ee66	-0.047346495
73	0xbdc901b5	-0.09814779
74	0xbd9c1b05	-0.07622341
75	0xbd85cd09	-0.06533248
76	0xbbc24ecd	-0.005929804
77	0xbc191c79	-0.009345167
78	0xba872ab5	-0.001031241
79	0x3d722a8b	0.059122603
80	0xbd1356af	-0.03597134
81	0x3ca77ee4	0.020446248
82	0x3c8155cc	0.015787981
83	0x3d62fe49	0.055418286
84	0x3d66cfb9	0.056350444
85	0xbd180c13	-0.03712089
86	0xbd90158c	-0.0703536
87	0x3d00d887	0.031456497
88	0xbd5254ad	-0.051350284
89	0x3d1bc9aa	0.03803412
90	0xbce47d41	-0.027891757
91	0x3daca5fe	0.08430098
92	0x3b9e0bb3	0.004823172
93	0x3c871195	0.016487876
94	0xbd0b673a	-0.03403399
95	0x3cd3a0e4	0.025833555
96	0xbbb2bfb9	-0.005454984
97	0xbb76c416	-0.0037653497
98	0x3c643009	0.013927468
99	0xbded3c8d	-0.11583815
100	0xbd1506f2	-0.036383577
101	0xbb6f10d9	-0.0036478548
102	0x3cf74310	0.030183345
103	0x3c0dd749	0.008657285
104	0x3cdbc638	0.026827917
105	0xbc1dac24	-0.009623561
106	0x3dce0117	0.100588016
107	0x3cc5c8c2	0.02414358
108	0xbd318e70	-0.04334873
109	0xbbd8d510	-0.006617196
110	0xbc82959a	-0.015940476
111	0x3d586cf0	0.052838266
112	0x3c831a27	0.016003681
113	0xbc5285a3	-0.012849244
114	0xbd4ad17e	-0.049516194
115	0x3cf7119a	0.03015976
116	0x3d976b9b	0.07393571
117	0xbc4a79e0	-0.012358159
118	0x3c20a8ae	0.009805841
119	0x3d356079	0.044281457
120	0xbd06eccd	-0.032940675
121	0x3ba0e8c8	0.004910562
122	0xbdafbf03	-0.085813545
123	0x3ce63296	0.028100293
124	0xbcd65fc6	-0.026168715
125	0xbd380322	-0.044924863
126	0x3b507ed7	0.0031813884
127	0x3cac7397	0.021051211
128	0xbccac2a4	-0.024751015
129	0xbcd173a5	-0.025567839
130	0xbca962ca	-0.02067699
131	0x3d91f53d	0.071268536
132	0xbb725edd	-0.0036982812
133	0xbdea457f	-0.114390366
134	0x3a7a1fd5	0.00095414865
135	0xbdf8d890	-0.12150681
136	0x3cc98293	0.024598395
137	0x3bf90f83	0.007600726
138	0x3d05d8d4	0.032677487
139	0xbd7d8c19	-0.061901186
140	0x3db24249	0.08704049
141	0xbd4e0e22	-0.050306447
142	0xbe11ed82	-0.14250758
143	0x3dc05521	0.09391237
144	0x3cb05e52	0.02152935
145	0x3c77d727	0.01512698
146	0xbc8091da	-0.015694547
147	0x3dcbab8c	0.09944829
148	0xbd05936f	-0.032611307
149	0x3d767fd2	0.060180493
150	0xbdbcbc84	-0.09215644
151	0xbc100e96	-0.00879254
152	0x3cb009cd	0.021489048
153	0x3ce89310	0.028390437
154	0x3cd5e839	0.026111709
155	0xbde27b30	-0.110586524
156	0x3d00047f	0.031254288
157	0x3cdf9c3f	0.027296184
158	0x3d1167c9	0.035499368
159	0xbd60bafe	-0.05486583
160	0xbc2a0e0a	-0.010379324
161	0xbcf61f2a	-0.030044157
162	0x3c8e10bf	0.01734197
163	0x3d946440	0.07245684
164	0xbd951ea4	-0.07281235
165	0xbca3fe34	-0.020018674
166	0xba103c3d	-0.000550214
167	0xbd0603a8	-0.03271833
168	0xbd98f83d	-0.07469223
169	0xbd253293	-0.040331434
170	0xbc3529c9	-0.011057326
171	0xbd98a558	-0.07453412
172	0x3c8e61fe	0.01738071
173	0xbc86eac1	-0.016469361
174	0x3d98d416	0.07462327
175	0xbbc1877a	-0.0059060426
176	0xbd7f0c45	-0.06226756
177	0xbd06940e	-0.03285604
178	0xbd7991fb	-0.060930233
179	0xbdb2a897	-0.08723562
180	0xbc9797a5	-0.018504927
181	0x3bb2627e	0.00544387
182	0xbc20898a	-0.009798417
183	0x3dd76488	0.10517222
184	0xbcd20d9c	-0.025641255
185	0xbdc0f1c1	-0.09421111
186	0x3cbc1931	0.022961231
187	0xbd17afda	-0.03703294
188	0xbac64b78	-0.0015128693
189	0x3cb89c3d	0.022535438
190	0xbcbb03e6	-0.022829007
191	0xbc85f978	-0.016354308
192	0xbce7abad	-0.028280104
193	0xbd4b3e0a	-0.049619712
194	0x3db262da	0.08710261
195	0xbca479b2	-0.02007756
196	0xbb254948	-0.002522068
197	0xbd44183b	-0.04787467
198	0xbd0055d2	-0.031331845
199	0xbd28a4cc	-0.041172788
200	0x3c94c781	0.018161537
201	0x3ded0708	0.11573607
202	0xbcc4f7e9	-0.024043994
203	0xbd4956f3	-0.049155187
204	0xbdf5c64f	-0.12000715
205	0x3bb77ae5	0.005599367
206	0x3d274c3d	0.04084419
207	0xbd19362f	-0.03740519
208	0xbcd36c55	-0.025808493
209	0x3c238044	0.009979311
210	0x3b0d91c1	0.0021601769
211	0xbcf3e535	-0.02977238
212	0x3e02791f	0.12741517
213	0xbd48dc60	-0.04903829
214	0xbb463117	-0.0030241662
215	0xbdf552e1	-0.119786985
216	0x3d898e21	0.06716562
217	0xbd8a930d	-0.06766329
218	0xbd1502c3	-0.036379587
219	0xbd87c48c	-0.06629285
220	0x3d7122fc	0.058871254
221	0xbcea01df	-0.028565345
222	0x3e011afd	0.12607951
223	0xbd552dfd	-0.05204581
224	0xbd0b3542	-0.033986337
225	0xbd8a31d9	-0.06747789
226	0xbbd1aae0	-0.0063985437
227	0x3db42121	0.08795381
228	0x3d218417	0.03943261
229	0xbbdcef42	-0.006742389
230	0x3d8526b8	0.06501526
231	0x3db77ec6	0.08959727
232	0x3d8083b8	0.06275123
233	0xbd01cbcb	-0.031688493
234	0xbd55cbb2	-0.052196212
235	0x3d332d81	0.043744568
236	0xbc5ddcf5	-0.01354145
237	0xbdcf9513	-0.101358555
238	0xbb00d0f7	-0.0019655803
239	0xbd7c2d0c	-0.061566398
240	0x3d435c89	0.04769567
241	0x3c2128e6	0.009836411
242	0x3cccf564	0.025019355
243	0x3ca832ab	0.020531973
244	0x3c8c47e6	0.017124128
245	0x3d16fb38	0.036860675
246	0x3d190366	0.037356757
247	0xbcec46a3	-0.028842276
248	0xba84c270	-0.0010128748
249	0xbcad5a48	-0.021161214
250	0xbd35c068	-0.044372946
251	0x3dad5a7e	0.08464526
252	0x3bc4120e	0.0059835976
253	0xbdb85303	-0.09000208
254	0xbc4ca811	-0.012491242
255	0xbd44f0cc	-0.048081204

Func/StatefulPartitionedCall/input/_1:0 f4 [1, 1, 6]
0	0x00000000	0.0
1	0x00000000	0.0
2	0x00000000	0.0
3	0x00000000	0.0
4	0x00000000	0.0
5	0x00000000	0.0

ConstantFolding/StatefulPartitionedCall/sequential/input/truediv_recip:0 f4 [1, 1, 6]
0	0x3f800000	1.0
1	0x3f800000	1.0
2	0x3f800000	1.0
3	0x3f800000	1.0
4	0x3f800000	1.0
5	0x3f800000	1.0

B0__29 f4 [1, 800]
0	0x3d2b305f	0.041794177
1	0x3cbee29f	0.02330142
2	0x3c8f8c5f	0.017522989
3	0x3ce940e3	0.028473323
4	0x3b2ed362	0.0026676287
5	0xbac51990	-0.0015037525
6	0x3b7dbb73	0.0038716465
7	0x3b7477a0	0.0037302747
8	0xba841efb	-0.0010080034
9	0x3c95e025	0.018295357
10	0x3cbe094f	0.023197798
11	0x3d2f3caf	0.04278248
12	0x3d070505	0.03296377
13	0x3c047a10	0.008085743
14	0x3cbb77f1	0.022884341
15	0x3d069a63	0.03286208
16	0x3cb329f5	0.021870593
17	0x3d21e646	0.039526246
18	0x3bdf8dbf	0.0068223174
19	0x3c885fde	0.016647276
20	0xbc9a9f08	-0.01887466
21	0x3c7fa0ca	0.0156023
22	0x3cfee758	0.031116173
23	0x3c2cc33a	0.0105445925
24	0x3c01bd2b	0.007918636
25	0x3b8793e7	0.0041375044
26	0x3c95a5b5	0.018267492
27	0x3ccb09d4	0.02478496
28	0x3cd0223d	0.025406951
29	0x3c32fc45	0.010924404
30	0x3ccce569	0.025011735
31	0x3bf76c9e	0.00755079
32	0x3c24a260	0.010048479
33	0x3ab24005	0.0013599402
34	0x3d0ac303	0.033877384
35	0x3c8a5252	0.016884957
36	0x3c82d4ae	0.015970554
37	0xba663c53	-0.0008782793
38	0x3bc9a17e	0.0061532846
39	0x3c6222d4	0.013802249
40	0x3ca509e6	0.020146322
41	0x3bb48280	0.005508721
42	0x3ca87487	0.020563377
43	0xb827f1cc	-4.0041094e-05
44	0x3bfc54d2	0.007700541
45	0x3c89c9ef	0.016819922
46	0x3c8252e3	0.015908664
47	0x3c70c9ea	0.014696578
48	0x3cb151e9	0.021645503
49	0x3ca75b40	0.020429254
50	0x3ca5e05d	0.020248586
51	0x3c9bec0b	0.019033452
52	0x3bb90e22	0.0056474367
53	0x3c82a43a	0.01594745
54	0x3d0a6299	0.033785436
55	0x3cddd9f2	0.027081463
56	0x3d2285bf	0.03967833
57	0x3cb5efac	0.022209011
58	0x3c3f92c6	0.011692708
59	0x3c8a5ef2	0.016890977
60	0x3cb0c175	0.021576623
61	0x3c00c419	0.007859253
62	0x3c48d2f7	0.012257329
63	0x3c8b6d8e	0.017020013
64	0x3b381e78	0.0028094333
65	0x3cf31161	0.029671373
66	0x3c8acd12	0.016943488
67	0x3c96e4d6	0.018419664
68	0x3cdb4cd5	0.026770035
69	0x3ce37809	0.027767198
70	0x3c8da8bc	0.017292373
71	0x3d16f3d9	0.036853645
72	0x3c9d4ee5	0.019202659
73	0x3c847cec	0.016172849
74	0x3cd4186c	0.025890552
75	0x3c81ec32	0.015859697
76	0x3d452ff5	0.04814144
77	0x3bbb62bc	0.005718557
78	0x3cc8313f	0.024437545
79	0x3c6f3e4e	0.014602257
80	0x3cf50729	0.02991064
81	0x3d043578	0.032277554
82	0x3c939ae7	0.0180182
83	0x3d06c320	0.03290093
84	0x3c70191a	0.014654422
85	0x3cb1e4fa	0.02171563
86	0x3bcea0d5	0.0063057938
87	0x3c849a7d	0.016186947
88	0x3d0d1e81	0.03445292
89	0x3cdadfdf	0.026718078
90	0x3ca91bbe	0.020643111
91	0x3c0b2a95	0.008494039
92	0x39ae560f	0.00033251985
93	0x3cfb1dc1	0.030653836
94	0x3cb027c3	0.021503335
95	0x3ccb3679	0.024806248
96	0x3c22c3ba	0.00993436
97	0x3caa309b	0.02077513
98	0x3c95daab	0.018292746
99	0x3cbbf0e1	0.022942008
100	0x3cdefec6	0.027221095
101	0x3cbe59cf	0.023236183
102	0x3d250b78	0.04029414
103	0x3cc2853b	0.02374517
104	0x3bada159	0.005298775
105	0x3c50faaf	0.01275508
106	0x3ca7eecb	0.020499608
107	0x3c9f77f7	0.019466383
108	0x3c915274	0.017739512
109	0x3cc5e610	0.024157554
110	0x3cccf5b7	0.02501951
111	0x3d29e9a7	0.041482594
112	0x3d04fb63	0.032466304
113	0x3c48eaab	0.01226298
114	0x3ca87e71	0.020568104
115	0x3cd4f7cc	0.025997065
116	0x3cde0ef9	0.027106749
117	0x3d1d1f4c	0.038359925
118	0x3c8e1816	0.01734547
119	0x3c531eb6	0.01288574
120	0xbbc18e72	-0.0059068734
121	0x3bef434a	0.0073017227
122	0x3d253484	0.040333286
123	0x3c47560f	0.012166514
124	0x3c0ce5f4	0.008599747
125	0x3b9841bb	0.0046465076
126	0x3c9dd1cc	0.019265078
127	0x3cec1cbc	0.028822295
128	0x3ccdd2ea	0.025124986
129	0x3b35d939	0.0027747883
130	0x3cea8773	0.02862904
131	0x3c1659da	0.009176696
132	0x3c82f923	0.015987938
133	0xbbe71b80	-0.007052839
134	0x3cf2adfa	0.029623974
135	0x3caad127	0.020851685
136	0x3c98d6e5	0.018657157
137	0x3ba33d06	0.00498164
138	0x3be4511e	0.0069676777
139	0x3c422880	0.011850476
140	0x3d0711c6	0.032975934
141	0x3c64f869	0.013975241
142	0x3cee41c4	0.029084094
143	0x3ac9828f	0.0015373993
144	0x3c784b3f	0.015154659
145	0x3c7f2a1e	0.015574006
146	0x3c210ec4	0.009830181
147	0x3c872a8d	0.016499782
148	0x3c63b9b9	0.01389926
149	0x3ce4bc17	0.02792172
150	0x3ca659ee	0.020306554
151	0x3ccbf427	0.024896694
152	0x3c72f724	0.014829431
153	0x3c2679d6	0.010160884
154	0x3d28ab0f	0.04117876
155	0x3d0d4b9a	0.034495927
156	0x3d21f8ad	0.039543796
157	0x3c54fd84	0.012999896
158	0x3cae2e8c	0.02126243
159	0x3c8c50fa	0.017128456
160	0x3c59d8c1	0.013296307
161	0x3c1a7ff0	0.009429917
162	0x3cb7d4f6	0.022440415
163	0x3cce8349	0.025209086
164	0x3c062f51	0.008189992
165	0x3cb6bacf	0.022305874
166	0x3c9539ef	0.018216101
167	0x3c8f0f23	0.017463272
168	0x3ce66f78	0.028129324
169	0x3cf3b109	0.029747503
170	0x3cb8ba2b	0.02254971
171	0x3d0f4393	0.034976553
172	0x3ccd146e	0.025034156
173	0x3c7e608e	0.01552595
174	0x3d054dc8	0.03254488
175	0x3cadfba2	0.021238152
176	0x3d66ac49	0.056316648
177	0x3c902621	0.017596306
178	0x3ccecaa4	0.025243111
179	0x3c8f852c	0.017519556
180	0x3cfef70a	0.031123657
181	0x3cc19f11	0.02363542
182	0x3c8b283f	0.016986964
183	0x3d11a56d	0.035558153
184	0x3d009e9d	0.031401265
185	0x3ceb3d40	0.02871573
186	0x3c1805d1	0.0092787305
187	0x3cafc674	0.021456935
188	0x3cd511f9	0.026009547
189	0x3cb6da46	0.022320878
190	0x3c5100d3	0.012756544
191	0xb99eeab9	-0.0003031099
192	0xbb1d1ab7	-0.0023972222
193	0x3ce2cd83	0.027685886
194	0x3c7a01b7	0.015259198
195	0x3c87b615	0.016566316
196	0x3c75e88c	0.015009057
197	0x3d044491	0.032291953
198	0x3d0ddf14	0.034636572
199	0x3c80ac33	0.015707111
200	0x3f8586af	1.0431727
201	0x3f8385ab	1.0275167
202	0x3f82d40a	1.0220959
203	0x3f8336d0	1.0251102
204	0x3f81ead0	1.0149784
205	0x3f81b2c2	1.0132678
206	0x3f837a85	1.0271765
207	0x3f83d6d4	1.0299935
208	0x3f837dab	1.0272726
209	0x3f81e1dc	1.0147052
210	0x3f82db33	1.0223144
211	0x3f879a9f	1.0594062
212	0x3f85cfe0	1.0454063
213	0x3f8180d0	1.0117435
214	0x3f839c5b	1.0282091
215	0x3f83c8e3	1.0295681
216	0x3f83b8d0	1.0290775
217	0x3f871b92	1.0555289
218	0x3f819120	1.0122414
219	0x3f8267ac	1.0187888
220	0x3f7e8cb3	0.9943344
221	0x3f826107	1.018586
222	0x3f8494f0	1.0357952
223	0x3f81e19d	1.0146977
224	0x3f8275ca	1.0192196
225	0x3f803fb3	1.001944
226	0x3f8382fd	1.027435
227	0x3f836028	1.026372
228	0x3f837cc0	1.0272446
229	0x3f7fe386	0.9995655
230	0x3f840fcd	1.0317322
231	0x3f817c49	1.0116054
232	0x3f83d4e2	1.0299342
233	0x3f7d5591	0.9895869
234	0x3f84bc7f	1.0370024
235	0x3f84627f	1.0342559
236	0x3f82fa4e	1.0232637
237	0x3f801a56	1.0008037
238	0x3f81be4a	1.0136197
239	0x3f8299de	1.0203207
240	0x3f839579	1.027999
241	0x3f82d226	1.0220382
242	0x3f849a60	1.0359612
243	0x3f80f673	1.007521
244	0x3f822dc0	1.0170212
245	0x3f811bb2	1.0086577
246	0x3f814e38	1.0101995
247	0x3f8104e8	1.0079622
248	0x3f83e773	1.0305008
249	0x3f82a095	1.0205256
250	0x3f82eae5	1.0227934
251	0x3f839c0e	1.0281999
252	0x3f81c4f6	1.0138233
253	0x3f8126bb	1.0089945
254	0x3f839186	1.0278785
255	0x3f8504d3	1.0392097
